…
2024-09-11 15:15:09,224 INFO: Number of test images in BSD100: 100
2024-09-11 15:15:09,225 INFO: Dataset [IRDataset] - Urban100 is built.
2024-09-11 15:15:09,225 INFO: Number of test images in Urban100: 100
2024-09-11 15:15:09,225 INFO: Dataset [IRDataset] - Manga109 is built.
2024-09-11 15:15:09,225 INFO: Number of test images in Manga109: 109
2024-09-11 15:15:09,237 INFO: Network [DLGSANet] is created.
2024-09-11 15:15:09,347 INFO: Network: DLGSANet, with parameters: 773,496
2024-09-11 15:15:09,347 INFO: DLGSANet(
  (overlap_embed): Sequential(
    (0): OverlapPatchEmbed(
      (proj): Conv2d(3, 48, kernel_size=(3, 3), stride=(1, 1), padding=(1, 1), bias=False)
    )
  )
  (deep_feature_extraction): Sequential(
    (0): BuildBlock(
      dim=48, blocks=3, buildblock_type=sparseedge, window_size=7, num_heads=(6, 6), ffn_type=('GDFN', 'GDFN'), ffn_expansion=(2.0, 2.0), idynamic=True, tlc=True
      (body): Sequential(
        (0): SAFMLayerBlock(
          (safm): SAFM(
            (mfr): ModuleList(
              (0-3): 4 x Conv2d(12, 12, kernel_size=(3, 3), stride=(1, 1), padding=(1, 1), groups=12)
            )
            (aggr): Conv2d(48, 48, kernel_size=(1, 1), stride=(1, 1))
            (act): GELU(approximate='none')
            (gap): AdaptiveAvgPool2d(output_size=1)
            (softmax): Softmax(dim=2)
            (Sigmoid): Sigmoid()
            (SE1): Conv2d(12, 12, kernel_size=(1, 1), stride=(1, 1))
            (SE2): Conv2d(12, 12, kernel_size=(1, 1), stride=(1, 1))
            (SE3): Conv2d(12, 12, kernel_size=(1, 1), stride=(1, 1))
            (SE4): Conv2d(12, 12, kernel_size=(1, 1), stride=(1, 1))
          )
          (norm5): LayerNorm(
            (body): WithBias_LayerNorm()
          )
          (norm6): LayerNorm(
            (body): WithBias_LayerNorm()
          )
          (restormer_ffn): FeedForward(
            (project_in): Conv2d(48, 192, kernel_size=(1, 1), stride=(1, 1), bias=False)
            (dwconv): Conv2d(192, 192, kernel_size=(3, 3), stride=(1, 1), padding=(1, 1), groups=192, bias=False)
            (project_out): Conv2d(96, 48, kernel_size=(1, 1), stride=(1, 1), bias=False)
          )
        )
        (1): SparseAttentionLayerBlock(
          (norm3): LayerNorm(
            (body): WithBias_LayerNorm()
          )
          (restormer_attn): SparseAttention(
            (qkv): Conv2d(48, 144, kernel_size=(1, 1), stride=(1, 1), bias=False)
            (qkv_dwconv): Conv2d(144, 144, kernel_size=(3, 3), stride=(1, 1), padding=(1, 1), groups=144, bias=False)
            (qkv_dwconv_pzh): Conv2d(144, 144, kernel_size=(3, 3), stride=(1, 1), padding=(1, 1), groups=144, bias=False)
            (pwconv): Conv2d(144, 48, kernel_size=(1, 1), stride=(1, 1), bias=False)
            (project_out): Conv2d(48, 48, kernel_size=(1, 1), stride=(1, 1), bias=False)
            (norm5): LayerNorm(
              (body): WithBias_LayerNorm()
            )
            (act): ReLU()
            (act_pzh): LeakyReLU(negative_slope=0.01)
          )
          (norm4): LayerNorm(
            (body): WithBias_LayerNorm()
          )
          (restormer_ffn): FeedForward(
            (project_in): Conv2d(48, 192, kernel_size=(1, 1), stride=(1, 1), bias=False)
            (dwconv): Conv2d(192, 192, kernel_size=(3, 3), stride=(1, 1), padding=(1, 1), groups=192, bias=False)
            (project_out): Conv2d(96, 48, kernel_size=(1, 1), stride=(1, 1), bias=False)
          )
        )
        (2): SAFMLayerBlock(
          (safm): SAFM(
            (mfr): ModuleList(
              (0-3): 4 x Conv2d(12, 12, kernel_size=(3, 3), stride=(1, 1), padding=(1, 1), groups=12)
            )
            (aggr): Conv2d(48, 48, kernel_size=(1, 1), stride=(1, 1))
            (act): GELU(approximate='none')
            (gap): AdaptiveAvgPool2d(output_size=1)
            (softmax): Softmax(dim=2)
            (Sigmoid): Sigmoid()
            (SE1): Conv2d(12, 12, kernel_size=(1, 1), stride=(1, 1))
            (SE2): Conv2d(12, 12, kernel_size=(1, 1), stride=(1, 1))
            (SE3): Conv2d(12, 12, kernel_size=(1, 1), stride=(1, 1))
            (SE4): Conv2d(12, 12, kernel_size=(1, 1), stride=(1, 1))
          )
          (norm5): LayerNorm(
            (body): WithBias_LayerNorm()
          )
          (norm6): LayerNorm(
            (body): WithBias_LayerNorm()
          )
          (restormer_ffn): FeedForward(
            (project_in): Conv2d(48, 192, kernel_size=(1, 1), stride=(1, 1), bias=False)
            (dwconv): Conv2d(192, 192, kernel_size=(3, 3), stride=(1, 1), padding=(1, 1), groups=192, bias=False)
            (project_out): Conv2d(96, 48, kernel_size=(1, 1), stride=(1, 1), bias=False)
          )
        )
        (3): SparseAttentionLayerBlock(
          (norm3): LayerNorm(
            (body): WithBias_LayerNorm()
          )
          (restormer_attn): SparseAttention(
            (qkv): Conv2d(48, 144, kernel_size=(1, 1), stride=(1, 1), bias=False)
            (qkv_dwconv): Conv2d(144, 144, kernel_size=(3, 3), stride=(1, 1), padding=(1, 1), groups=144, bias=False)
            (qkv_dwconv_pzh): Conv2d(144, 144, kernel_size=(3, 3), stride=(1, 1), padding=(1, 1), groups=144, bias=False)
            (pwconv): Conv2d(144, 48, kernel_size=(1, 1), stride=(1, 1), bias=False)
            (project_out): Conv2d(48, 48, kernel_size=(1, 1), stride=(1, 1), bias=False)
            (norm5): LayerNorm(
              (body): WithBias_LayerNorm()
            )
            (act): ReLU()
            (act_pzh): LeakyReLU(negative_slope=0.01)
          )
          (norm4): LayerNorm(
            (body): WithBias_LayerNorm()
          )
          (restormer_ffn): FeedForward(
            (project_in): Conv2d(48, 192, kernel_size=(1, 1), stride=(1, 1), bias=False)
            (dwconv): Conv2d(192, 192, kernel_size=(3, 3), stride=(1, 1), padding=(1, 1), groups=192, bias=False)
            (project_out): Conv2d(96, 48, kernel_size=(1, 1), stride=(1, 1), bias=False)
          )
        )
        (4): SAFMLayerBlock(
          (safm): SAFM(
            (mfr): ModuleList(
              (0-3): 4 x Conv2d(12, 12, kernel_size=(3, 3), stride=(1, 1), padding=(1, 1), groups=12)
            )
            (aggr): Conv2d(48, 48, kernel_size=(1, 1), stride=(1, 1))
            (act): GELU(approximate='none')
            (gap): AdaptiveAvgPool2d(output_size=1)
            (softmax): Softmax(dim=2)
            (Sigmoid): Sigmoid()
            (SE1): Conv2d(12, 12, kernel_size=(1, 1), stride=(1, 1))
            (SE2): Conv2d(12, 12, kernel_size=(1, 1), stride=(1, 1))
            (SE3): Conv2d(12, 12, kernel_size=(1, 1), stride=(1, 1))
            (SE4): Conv2d(12, 12, kernel_size=(1, 1), stride=(1, 1))
          )
          (norm5): LayerNorm(
            (body): WithBias_LayerNorm()
          )
          (norm6): LayerNorm(
            (body): WithBias_LayerNorm()
          )
          (restormer_ffn): FeedForward(
            (project_in): Conv2d(48, 192, kernel_size=(1, 1), stride=(1, 1), bias=False)
            (dwconv): Conv2d(192, 192, kernel_size=(3, 3), stride=(1, 1), padding=(1, 1), groups=192, bias=False)
            (project_out): Conv2d(96, 48, kernel_size=(1, 1), stride=(1, 1), bias=False)
          )
        )
        (5): SparseAttentionLayerBlock(
          (norm3): LayerNorm(
            (body): WithBias_LayerNorm()
          )
          (restormer_attn): SparseAttention(
            (qkv): Conv2d(48, 144, kernel_size=(1, 1), stride=(1, 1), bias=False)
            (qkv_dwconv): Conv2d(144, 144, kernel_size=(3, 3), stride=(1, 1), padding=(1, 1), groups=144, bias=False)
            (qkv_dwconv_pzh): Conv2d(144, 144, kernel_size=(3, 3), stride=(1, 1), padding=(1, 1), groups=144, bias=False)
            (pwconv): Conv2d(144, 48, kernel_size=(1, 1), stride=(1, 1), bias=False)
            (project_out): Conv2d(48, 48, kernel_size=(1, 1), stride=(1, 1), bias=False)
            (norm5): LayerNorm(
              (body): WithBias_LayerNorm()
            )
            (act): ReLU()
            (act_pzh): LeakyReLU(negative_slope=0.01)
          )
          (norm4): LayerNorm(
            (body): WithBias_LayerNorm()
          )
          (restormer_ffn): FeedForward(
            (project_in): Conv2d(48, 192, kernel_size=(1, 1), stride=(1, 1), bias=False)
            (dwconv): Conv2d(192, 192, kernel_size=(3, 3), stride=(1, 1), padding=(1, 1), groups=192, bias=False)
            (project_out): Conv2d(96, 48, kernel_size=(1, 1), stride=(1, 1), bias=False)
          )
        )
        (6): Conv2d(48, 48, kernel_size=(3, 3), stride=(1, 1), padding=(1, 1))
      )
    )
    (1): BuildBlock(
      dim=48, blocks=3, buildblock_type=sparseedge, window_size=7, num_heads=(6, 6), ffn_type=('GDFN', 'GDFN'), ffn_expansion=(2.0, 2.0), idynamic=True, tlc=True
      (body): Sequential(
        (0): SAFMLayerBlock(
          (safm): SAFM(
            (mfr): ModuleList(
              (0-3): 4 x Conv2d(12, 12, kernel_size=(3, 3), stride=(1, 1), padding=(1, 1), groups=12)
            )
            (aggr): Conv2d(48, 48, kernel_size=(1, 1), stride=(1, 1))
            (act): GELU(approximate='none')
            (gap): AdaptiveAvgPool2d(output_size=1)
            (softmax): Softmax(dim=2)
            (Sigmoid): Sigmoid()
            (SE1): Conv2d(12, 12, kernel_size=(1, 1), stride=(1, 1))
            (SE2): Conv2d(12, 12, kernel_size=(1, 1), stride=(1, 1))
            (SE3): Conv2d(12, 12, kernel_size=(1, 1), stride=(1, 1))
            (SE4): Conv2d(12, 12, kernel_size=(1, 1), stride=(1, 1))
          )
          (norm5): LayerNorm(
            (body): WithBias_LayerNorm()
          )
          (norm6): LayerNorm(
            (body): WithBias_LayerNorm()
          )
          (restormer_ffn): FeedForward(
            (project_in): Conv2d(48, 192, kernel_size=(1, 1), stride=(1, 1), bias=False)
            (dwconv): Conv2d(192, 192, kernel_size=(3, 3), stride=(1, 1), padding=(1, 1), groups=192, bias=False)
            (project_out): Conv2d(96, 48, kernel_size=(1, 1), stride=(1, 1), bias=False)
          )
        )
        (1): SparseAttentionLayerBlock(
          (norm3): LayerNorm(
            (body): WithBias_LayerNorm()
          )
          (restormer_attn): SparseAttention(
            (qkv): Conv2d(48, 144, kernel_size=(1, 1), stride=(1, 1), bias=False)
            (qkv_dwconv): Conv2d(144, 144, kernel_size=(3, 3), stride=(1, 1), padding=(1, 1), groups=144, bias=False)
            (qkv_dwconv_pzh): Conv2d(144, 144, kernel_size=(3, 3), stride=(1, 1), padding=(1, 1), groups=144, bias=False)
            (pwconv): Conv2d(144, 48, kernel_size=(1, 1), stride=(1, 1), bias=False)
            (project_out): Conv2d(48, 48, kernel_size=(1, 1), stride=(1, 1), bias=False)
            (norm5): LayerNorm(
              (body): WithBias_LayerNorm()
            )
            (act): ReLU()
            (act_pzh): LeakyReLU(negative_slope=0.01)
          )
          (norm4): LayerNorm(
            (body): WithBias_LayerNorm()
          )
          (restormer_ffn): FeedForward(
            (project_in): Conv2d(48, 192, kernel_size=(1, 1), stride=(1, 1), bias=False)
            (dwconv): Conv2d(192, 192, kernel_size=(3, 3), stride=(1, 1), padding=(1, 1), groups=192, bias=False)
            (project_out): Conv2d(96, 48, kernel_size=(1, 1), stride=(1, 1), bias=False)
          )
        )
        (2): SAFMLayerBlock(
          (safm): SAFM(
            (mfr): ModuleList(
              (0-3): 4 x Conv2d(12, 12, kernel_size=(3, 3), stride=(1, 1), padding=(1, 1), groups=12)
            )
            (aggr): Conv2d(48, 48, kernel_size=(1, 1), stride=(1, 1))
            (act): GELU(approximate='none')
            (gap): AdaptiveAvgPool2d(output_size=1)
            (softmax): Softmax(dim=2)
            (Sigmoid): Sigmoid()
            (SE1): Conv2d(12, 12, kernel_size=(1, 1), stride=(1, 1))
            (SE2): Conv2d(12, 12, kernel_size=(1, 1), stride=(1, 1))
            (SE3): Conv2d(12, 12, kernel_size=(1, 1), stride=(1, 1))
            (SE4): Conv2d(12, 12, kernel_size=(1, 1), stride=(1, 1))
          )
          (norm5): LayerNorm(
            (body): WithBias_LayerNorm()
          )
          (norm6): LayerNorm(
            (body): WithBias_LayerNorm()
          )
          (restormer_ffn): FeedForward(
            (project_in): Conv2d(48, 192, kernel_size=(1, 1), stride=(1, 1), bias=False)
            (dwconv): Conv2d(192, 192, kernel_size=(3, 3), stride=(1, 1), padding=(1, 1), groups=192, bias=False)
            (project_out): Conv2d(96, 48, kernel_size=(1, 1), stride=(1, 1), bias=False)
          )
        )
        (3): SparseAttentionLayerBlock(
          (norm3): LayerNorm(
            (body): WithBias_LayerNorm()
          )
          (restormer_attn): SparseAttention(
            (qkv): Conv2d(48, 144, kernel_size=(1, 1), stride=(1, 1), bias=False)
            (qkv_dwconv): Conv2d(144, 144, kernel_size=(3, 3), stride=(1, 1), padding=(1, 1), groups=144, bias=False)
            (qkv_dwconv_pzh): Conv2d(144, 144, kernel_size=(3, 3), stride=(1, 1), padding=(1, 1), groups=144, bias=False)
            (pwconv): Conv2d(144, 48, kernel_size=(1, 1), stride=(1, 1), bias=False)
            (project_out): Conv2d(48, 48, kernel_size=(1, 1), stride=(1, 1), bias=False)
            (norm5): LayerNorm(
              (body): WithBias_LayerNorm()
            )
            (act): ReLU()
            (act_pzh): LeakyReLU(negative_slope=0.01)
          )
          (norm4): LayerNorm(
            (body): WithBias_LayerNorm()
          )
          (restormer_ffn): FeedForward(
            (project_in): Conv2d(48, 192, kernel_size=(1, 1), stride=(1, 1), bias=False)
            (dwconv): Conv2d(192, 192, kernel_size=(3, 3), stride=(1, 1), padding=(1, 1), groups=192, bias=False)
            (project_out): Conv2d(96, 48, kernel_size=(1, 1), stride=(1, 1), bias=False)
          )
        )
        (4): SAFMLayerBlock(
          (safm): SAFM(
            (mfr): ModuleList(
              (0-3): 4 x Conv2d(12, 12, kernel_size=(3, 3), stride=(1, 1), padding=(1, 1), groups=12)
            )
            (aggr): Conv2d(48, 48, kernel_size=(1, 1), stride=(1, 1))
            (act): GELU(approximate='none')
            (gap): AdaptiveAvgPool2d(output_size=1)
            (softmax): Softmax(dim=2)
            (Sigmoid): Sigmoid()
            (SE1): Conv2d(12, 12, kernel_size=(1, 1), stride=(1, 1))
            (SE2): Conv2d(12, 12, kernel_size=(1, 1), stride=(1, 1))
            (SE3): Conv2d(12, 12, kernel_size=(1, 1), stride=(1, 1))
            (SE4): Conv2d(12, 12, kernel_size=(1, 1), stride=(1, 1))
          )
          (norm5): LayerNorm(
            (body): WithBias_LayerNorm()
          )
          (norm6): LayerNorm(
            (body): WithBias_LayerNorm()
          )
          (restormer_ffn): FeedForward(
            (project_in): Conv2d(48, 192, kernel_size=(1, 1), stride=(1, 1), bias=False)
            (dwconv): Conv2d(192, 192, kernel_size=(3, 3), stride=(1, 1), padding=(1, 1), groups=192, bias=False)
            (project_out): Conv2d(96, 48, kernel_size=(1, 1), stride=(1, 1), bias=False)
          )
        )
        (5): SparseAttentionLayerBlock(
          (norm3): LayerNorm(
            (body): WithBias_LayerNorm()
          )
          (restormer_attn): SparseAttention(
            (qkv): Conv2d(48, 144, kernel_size=(1, 1), stride=(1, 1), bias=False)
            (qkv_dwconv): Conv2d(144, 144, kernel_size=(3, 3), stride=(1, 1), padding=(1, 1), groups=144, bias=False)
            (qkv_dwconv_pzh): Conv2d(144, 144, kernel_size=(3, 3), stride=(1, 1), padding=(1, 1), groups=144, bias=False)
            (pwconv): Conv2d(144, 48, kernel_size=(1, 1), stride=(1, 1), bias=False)
            (project_out): Conv2d(48, 48, kernel_size=(1, 1), stride=(1, 1), bias=False)
            (norm5): LayerNorm(
              (body): WithBias_LayerNorm()
            )
            (act): ReLU()
            (act_pzh): LeakyReLU(negative_slope=0.01)
          )
          (norm4): LayerNorm(
            (body): WithBias_LayerNorm()
          )
          (restormer_ffn): FeedForward(
            (project_in): Conv2d(48, 192, kernel_size=(1, 1), stride=(1, 1), bias=False)
            (dwconv): Conv2d(192, 192, kernel_size=(3, 3), stride=(1, 1), padding=(1, 1), groups=192, bias=False)
            (project_out): Conv2d(96, 48, kernel_size=(1, 1), stride=(1, 1), bias=False)
          )
        )
        (6): Conv2d(48, 48, kernel_size=(3, 3), stride=(1, 1), padding=(1, 1))
      )
    )
    (2): BuildBlock(
      dim=48, blocks=3, buildblock_type=sparseedge, window_size=7, num_heads=(6, 6), ffn_type=('GDFN', 'GDFN'), ffn_expansion=(2.0, 2.0), idynamic=True, tlc=True
      (body): Sequential(
        (0): SAFMLayerBlock(
          (safm): SAFM(
            (mfr): ModuleList(
              (0-3): 4 x Conv2d(12, 12, kernel_size=(3, 3), stride=(1, 1), padding=(1, 1), groups=12)
            )
            (aggr): Conv2d(48, 48, kernel_size=(1, 1), stride=(1, 1))
            (act): GELU(approximate='none')
            (gap): AdaptiveAvgPool2d(output_size=1)
            (softmax): Softmax(dim=2)
            (Sigmoid): Sigmoid()
            (SE1): Conv2d(12, 12, kernel_size=(1, 1), stride=(1, 1))
            (SE2): Conv2d(12, 12, kernel_size=(1, 1), stride=(1, 1))
            (SE3): Conv2d(12, 12, kernel_size=(1, 1), stride=(1, 1))
            (SE4): Conv2d(12, 12, kernel_size=(1, 1), stride=(1, 1))
          )
          (norm5): LayerNorm(
            (body): WithBias_LayerNorm()
          )
          (norm6): LayerNorm(
            (body): WithBias_LayerNorm()
          )
          (restormer_ffn): FeedForward(
            (project_in): Conv2d(48, 192, kernel_size=(1, 1), stride=(1, 1), bias=False)
            (dwconv): Conv2d(192, 192, kernel_size=(3, 3), stride=(1, 1), padding=(1, 1), groups=192, bias=False)
            (project_out): Conv2d(96, 48, kernel_size=(1, 1), stride=(1, 1), bias=False)
          )
        )
        (1): SparseAttentionLayerBlock(
          (norm3): LayerNorm(
            (body): WithBias_LayerNorm()
          )
          (restormer_attn): SparseAttention(
            (qkv): Conv2d(48, 144, kernel_size=(1, 1), stride=(1, 1), bias=False)
            (qkv_dwconv): Conv2d(144, 144, kernel_size=(3, 3), stride=(1, 1), padding=(1, 1), groups=144, bias=False)
            (qkv_dwconv_pzh): Conv2d(144, 144, kernel_size=(3, 3), stride=(1, 1), padding=(1, 1), groups=144, bias=False)
            (pwconv): Conv2d(144, 48, kernel_size=(1, 1), stride=(1, 1), bias=False)
            (project_out): Conv2d(48, 48, kernel_size=(1, 1), stride=(1, 1), bias=False)
            (norm5): LayerNorm(
              (body): WithBias_LayerNorm()
            )
            (act): ReLU()
            (act_pzh): LeakyReLU(negative_slope=0.01)
          )
          (norm4): LayerNorm(
            (body): WithBias_LayerNorm()
          )
          (restormer_ffn): FeedForward(
            (project_in): Conv2d(48, 192, kernel_size=(1, 1), stride=(1, 1), bias=False)
            (dwconv): Conv2d(192, 192, kernel_size=(3, 3), stride=(1, 1), padding=(1, 1), groups=192, bias=False)
            (project_out): Conv2d(96, 48, kernel_size=(1, 1), stride=(1, 1), bias=False)
          )
        )
        (2): SAFMLayerBlock(
          (safm): SAFM(
            (mfr): ModuleList(
              (0-3): 4 x Conv2d(12, 12, kernel_size=(3, 3), stride=(1, 1), padding=(1, 1), groups=12)
            )
            (aggr): Conv2d(48, 48, kernel_size=(1, 1), stride=(1, 1))
            (act): GELU(approximate='none')
            (gap): AdaptiveAvgPool2d(output_size=1)
            (softmax): Softmax(dim=2)
            (Sigmoid): Sigmoid()
            (SE1): Conv2d(12, 12, kernel_size=(1, 1), stride=(1, 1))
            (SE2): Conv2d(12, 12, kernel_size=(1, 1), stride=(1, 1))
            (SE3): Conv2d(12, 12, kernel_size=(1, 1), stride=(1, 1))
            (SE4): Conv2d(12, 12, kernel_size=(1, 1), stride=(1, 1))
          )
          (norm5): LayerNorm(
            (body): WithBias_LayerNorm()
          )
          (norm6): LayerNorm(
            (body): WithBias_LayerNorm()
          )
          (restormer_ffn): FeedForward(
            (project_in): Conv2d(48, 192, kernel_size=(1, 1), stride=(1, 1), bias=False)
            (dwconv): Conv2d(192, 192, kernel_size=(3, 3), stride=(1, 1), padding=(1, 1), groups=192, bias=False)
            (project_out): Conv2d(96, 48, kernel_size=(1, 1), stride=(1, 1), bias=False)
          )
        )
        (3): SparseAttentionLayerBlock(
          (norm3): LayerNorm(
            (body): WithBias_LayerNorm()
          )
          (restormer_attn): SparseAttention(
            (qkv): Conv2d(48, 144, kernel_size=(1, 1), stride=(1, 1), bias=False)
            (qkv_dwconv): Conv2d(144, 144, kernel_size=(3, 3), stride=(1, 1), padding=(1, 1), groups=144, bias=False)
            (qkv_dwconv_pzh): Conv2d(144, 144, kernel_size=(3, 3), stride=(1, 1), padding=(1, 1), groups=144, bias=False)
            (pwconv): Conv2d(144, 48, kernel_size=(1, 1), stride=(1, 1), bias=False)
            (project_out): Conv2d(48, 48, kernel_size=(1, 1), stride=(1, 1), bias=False)
            (norm5): LayerNorm(
              (body): WithBias_LayerNorm()
            )
            (act): ReLU()
            (act_pzh): LeakyReLU(negative_slope=0.01)
          )
          (norm4): LayerNorm(
            (body): WithBias_LayerNorm()
          )
          (restormer_ffn): FeedForward(
            (project_in): Conv2d(48, 192, kernel_size=(1, 1), stride=(1, 1), bias=False)
            (dwconv): Conv2d(192, 192, kernel_size=(3, 3), stride=(1, 1), padding=(1, 1), groups=192, bias=False)
            (project_out): Conv2d(96, 48, kernel_size=(1, 1), stride=(1, 1), bias=False)
          )
        )
        (4): SAFMLayerBlock(
          (safm): SAFM(
            (mfr): ModuleList(
              (0-3): 4 x Conv2d(12, 12, kernel_size=(3, 3), stride=(1, 1), padding=(1, 1), groups=12)
            )
            (aggr): Conv2d(48, 48, kernel_size=(1, 1), stride=(1, 1))
            (act): GELU(approximate='none')
            (gap): AdaptiveAvgPool2d(output_size=1)
            (softmax): Softmax(dim=2)
            (Sigmoid): Sigmoid()
            (SE1): Conv2d(12, 12, kernel_size=(1, 1), stride=(1, 1))
            (SE2): Conv2d(12, 12, kernel_size=(1, 1), stride=(1, 1))
            (SE3): Conv2d(12, 12, kernel_size=(1, 1), stride=(1, 1))
            (SE4): Conv2d(12, 12, kernel_size=(1, 1), stride=(1, 1))
          )
          (norm5): LayerNorm(
            (body): WithBias_LayerNorm()
          )
          (norm6): LayerNorm(
            (body): WithBias_LayerNorm()
          )
          (restormer_ffn): FeedForward(
            (project_in): Conv2d(48, 192, kernel_size=(1, 1), stride=(1, 1), bias=False)
            (dwconv): Conv2d(192, 192, kernel_size=(3, 3), stride=(1, 1), padding=(1, 1), groups=192, bias=False)
            (project_out): Conv2d(96, 48, kernel_size=(1, 1), stride=(1, 1), bias=False)
          )
        )
        (5): SparseAttentionLayerBlock(
          (norm3): LayerNorm(
            (body): WithBias_LayerNorm()
          )
          (restormer_attn): SparseAttention(
            (qkv): Conv2d(48, 144, kernel_size=(1, 1), stride=(1, 1), bias=False)
            (qkv_dwconv): Conv2d(144, 144, kernel_size=(3, 3), stride=(1, 1), padding=(1, 1), groups=144, bias=False)
            (qkv_dwconv_pzh): Conv2d(144, 144, kernel_size=(3, 3), stride=(1, 1), padding=(1, 1), groups=144, bias=False)
            (pwconv): Conv2d(144, 48, kernel_size=(1, 1), stride=(1, 1), bias=False)
            (project_out): Conv2d(48, 48, kernel_size=(1, 1), stride=(1, 1), bias=False)
            (norm5): LayerNorm(
              (body): WithBias_LayerNorm()
            )
            (act): ReLU()
            (act_pzh): LeakyReLU(negative_slope=0.01)
          )
          (norm4): LayerNorm(
            (body): WithBias_LayerNorm()
          )
          (restormer_ffn): FeedForward(
            (project_in): Conv2d(48, 192, kernel_size=(1, 1), stride=(1, 1), bias=False)
            (dwconv): Conv2d(192, 192, kernel_size=(3, 3), stride=(1, 1), padding=(1, 1), groups=192, bias=False)
            (project_out): Conv2d(96, 48, kernel_size=(1, 1), stride=(1, 1), bias=False)
          )
        )
        (6): Conv2d(48, 48, kernel_size=(3, 3), stride=(1, 1), padding=(1, 1))
      )
    )
    (3): BuildBlock(
      dim=48, blocks=3, buildblock_type=sparseedge, window_size=7, num_heads=(6, 6), ffn_type=('GDFN', 'GDFN'), ffn_expansion=(2.0, 2.0), idynamic=True, tlc=True
      (body): Sequential(
        (0): SAFMLayerBlock(
          (safm): SAFM(
            (mfr): ModuleList(
              (0-3): 4 x Conv2d(12, 12, kernel_size=(3, 3), stride=(1, 1), padding=(1, 1), groups=12)
            )
            (aggr): Conv2d(48, 48, kernel_size=(1, 1), stride=(1, 1))
            (act): GELU(approximate='none')
            (gap): AdaptiveAvgPool2d(output_size=1)
            (softmax): Softmax(dim=2)
            (Sigmoid): Sigmoid()
            (SE1): Conv2d(12, 12, kernel_size=(1, 1), stride=(1, 1))
            (SE2): Conv2d(12, 12, kernel_size=(1, 1), stride=(1, 1))
            (SE3): Conv2d(12, 12, kernel_size=(1, 1), stride=(1, 1))
            (SE4): Conv2d(12, 12, kernel_size=(1, 1), stride=(1, 1))
          )
          (norm5): LayerNorm(
            (body): WithBias_LayerNorm()
          )
          (norm6): LayerNorm(
            (body): WithBias_LayerNorm()
          )
          (restormer_ffn): FeedForward(
            (project_in): Conv2d(48, 192, kernel_size=(1, 1), stride=(1, 1), bias=False)
            (dwconv): Conv2d(192, 192, kernel_size=(3, 3), stride=(1, 1), padding=(1, 1), groups=192, bias=False)
            (project_out): Conv2d(96, 48, kernel_size=(1, 1), stride=(1, 1), bias=False)
          )
        )
        (1): SparseAttentionLayerBlock(
          (norm3): LayerNorm(
            (body): WithBias_LayerNorm()
          )
          (restormer_attn): SparseAttention(
            (qkv): Conv2d(48, 144, kernel_size=(1, 1), stride=(1, 1), bias=False)
            (qkv_dwconv): Conv2d(144, 144, kernel_size=(3, 3), stride=(1, 1), padding=(1, 1), groups=144, bias=False)
            (qkv_dwconv_pzh): Conv2d(144, 144, kernel_size=(3, 3), stride=(1, 1), padding=(1, 1), groups=144, bias=False)
            (pwconv): Conv2d(144, 48, kernel_size=(1, 1), stride=(1, 1), bias=False)
            (project_out): Conv2d(48, 48, kernel_size=(1, 1), stride=(1, 1), bias=False)
            (norm5): LayerNorm(
              (body): WithBias_LayerNorm()
            )
            (act): ReLU()
            (act_pzh): LeakyReLU(negative_slope=0.01)
          )
          (norm4): LayerNorm(
            (body): WithBias_LayerNorm()
          )
          (restormer_ffn): FeedForward(
            (project_in): Conv2d(48, 192, kernel_size=(1, 1), stride=(1, 1), bias=False)
            (dwconv): Conv2d(192, 192, kernel_size=(3, 3), stride=(1, 1), padding=(1, 1), groups=192, bias=False)
            (project_out): Conv2d(96, 48, kernel_size=(1, 1), stride=(1, 1), bias=False)
          )
        )
        (2): SAFMLayerBlock(
          (safm): SAFM(
            (mfr): ModuleList(
              (0-3): 4 x Conv2d(12, 12, kernel_size=(3, 3), stride=(1, 1), padding=(1, 1), groups=12)
            )
            (aggr): Conv2d(48, 48, kernel_size=(1, 1), stride=(1, 1))
            (act): GELU(approximate='none')
            (gap): AdaptiveAvgPool2d(output_size=1)
            (softmax): Softmax(dim=2)
            (Sigmoid): Sigmoid()
            (SE1): Conv2d(12, 12, kernel_size=(1, 1), stride=(1, 1))
            (SE2): Conv2d(12, 12, kernel_size=(1, 1), stride=(1, 1))
            (SE3): Conv2d(12, 12, kernel_size=(1, 1), stride=(1, 1))
            (SE4): Conv2d(12, 12, kernel_size=(1, 1), stride=(1, 1))
          )
          (norm5): LayerNorm(
            (body): WithBias_LayerNorm()
          )
          (norm6): LayerNorm(
            (body): WithBias_LayerNorm()
          )
          (restormer_ffn): FeedForward(
            (project_in): Conv2d(48, 192, kernel_size=(1, 1), stride=(1, 1), bias=False)
            (dwconv): Conv2d(192, 192, kernel_size=(3, 3), stride=(1, 1), padding=(1, 1), groups=192, bias=False)
            (project_out): Conv2d(96, 48, kernel_size=(1, 1), stride=(1, 1), bias=False)
          )
        )
        (3): SparseAttentionLayerBlock(
          (norm3): LayerNorm(
            (body): WithBias_LayerNorm()
          )
          (restormer_attn): SparseAttention(
            (qkv): Conv2d(48, 144, kernel_size=(1, 1), stride=(1, 1), bias=False)
            (qkv_dwconv): Conv2d(144, 144, kernel_size=(3, 3), stride=(1, 1), padding=(1, 1), groups=144, bias=False)
            (qkv_dwconv_pzh): Conv2d(144, 144, kernel_size=(3, 3), stride=(1, 1), padding=(1, 1), groups=144, bias=False)
            (pwconv): Conv2d(144, 48, kernel_size=(1, 1), stride=(1, 1), bias=False)
            (project_out): Conv2d(48, 48, kernel_size=(1, 1), stride=(1, 1), bias=False)
            (norm5): LayerNorm(
              (body): WithBias_LayerNorm()
            )
            (act): ReLU()
            (act_pzh): LeakyReLU(negative_slope=0.01)
          )
          (norm4): LayerNorm(
            (body): WithBias_LayerNorm()
          )
          (restormer_ffn): FeedForward(
            (project_in): Conv2d(48, 192, kernel_size=(1, 1), stride=(1, 1), bias=False)
            (dwconv): Conv2d(192, 192, kernel_size=(3, 3), stride=(1, 1), padding=(1, 1), groups=192, bias=False)
            (project_out): Conv2d(96, 48, kernel_size=(1, 1), stride=(1, 1), bias=False)
          )
        )
        (4): SAFMLayerBlock(
          (safm): SAFM(
            (mfr): ModuleList(
              (0-3): 4 x Conv2d(12, 12, kernel_size=(3, 3), stride=(1, 1), padding=(1, 1), groups=12)
            )
            (aggr): Conv2d(48, 48, kernel_size=(1, 1), stride=(1, 1))
            (act): GELU(approximate='none')
            (gap): AdaptiveAvgPool2d(output_size=1)
            (softmax): Softmax(dim=2)
            (Sigmoid): Sigmoid()
            (SE1): Conv2d(12, 12, kernel_size=(1, 1), stride=(1, 1))
            (SE2): Conv2d(12, 12, kernel_size=(1, 1), stride=(1, 1))
            (SE3): Conv2d(12, 12, kernel_size=(1, 1), stride=(1, 1))
            (SE4): Conv2d(12, 12, kernel_size=(1, 1), stride=(1, 1))
          )
          (norm5): LayerNorm(
            (body): WithBias_LayerNorm()
          )
          (norm6): LayerNorm(
            (body): WithBias_LayerNorm()
          )
          (restormer_ffn): FeedForward(
            (project_in): Conv2d(48, 192, kernel_size=(1, 1), stride=(1, 1), bias=False)
            (dwconv): Conv2d(192, 192, kernel_size=(3, 3), stride=(1, 1), padding=(1, 1), groups=192, bias=False)
            (project_out): Conv2d(96, 48, kernel_size=(1, 1), stride=(1, 1), bias=False)
          )
        )
        (5): SparseAttentionLayerBlock(
          (norm3): LayerNorm(
            (body): WithBias_LayerNorm()
          )
          (restormer_attn): SparseAttention(
            (qkv): Conv2d(48, 144, kernel_size=(1, 1), stride=(1, 1), bias=False)
            (qkv_dwconv): Conv2d(144, 144, kernel_size=(3, 3), stride=(1, 1), padding=(1, 1), groups=144, bias=False)
            (qkv_dwconv_pzh): Conv2d(144, 144, kernel_size=(3, 3), stride=(1, 1), padding=(1, 1), groups=144, bias=False)
            (pwconv): Conv2d(144, 48, kernel_size=(1, 1), stride=(1, 1), bias=False)
            (project_out): Conv2d(48, 48, kernel_size=(1, 1), stride=(1, 1), bias=False)
            (norm5): LayerNorm(
              (body): WithBias_LayerNorm()
            )
            (act): ReLU()
            (act_pzh): LeakyReLU(negative_slope=0.01)
          )
          (norm4): LayerNorm(
            (body): WithBias_LayerNorm()
          )
          (restormer_ffn): FeedForward(
            (project_in): Conv2d(48, 192, kernel_size=(1, 1), stride=(1, 1), bias=False)
            (dwconv): Conv2d(192, 192, kernel_size=(3, 3), stride=(1, 1), padding=(1, 1), groups=192, bias=False)
            (project_out): Conv2d(96, 48, kernel_size=(1, 1), stride=(1, 1), bias=False)
          )
        )
        (6): Conv2d(48, 48, kernel_size=(3, 3), stride=(1, 1), padding=(1, 1))
      )
    )
    (4): Conv2d(48, 48, kernel_size=(3, 3), stride=(1, 1), padding=(1, 1))
  )
  (upsample): UpsampleOneStep(
    (0): Conv2d(48, 48, kernel_size=(3, 3), stride=(1, 1), padding=(1, 1))
    (1): PixelShuffle(upscale_factor=4)
  )
)
2024-09-11 15:15:09,362 INFO: Loading DLGSANet model from experiments/PSAFM_PSPA_16_LSR_x4/models/net_g_870000.pth, with param key: [params].
2024-09-11 15:15:09,388 INFO: Model [SRModel] is created.
2024-09-11 15:15:09,388 INFO: Testing Demo_Set5...
2024-09-11 15:15:10,345 INFO: Validation Demo_Set5
…
